app/src/main/ml/stroke_model_compatible.tflite (tflite, 51972 bytes, 9 tensors)

arith.constant f4 [1, 16]
000000 6d 62 4a 3f 37 bb be be 7e 14 0e 3f 5a af 0e bf
       0.79056436 -0.3725221 0.5550002 -0.55736315
000010 ea 21 03 3f 48 85 4a bf 8e 40 44 bf 21 ef d0 3e
       0.51223624 -0.7910962 -0.76661 0.4080744
000020 67 98 1d bf fa bc 4e bf ca 3e 1a 3f 09 54 16 bf
       -0.6156067 -0.80757105 0.6025206 -0.5872198
000030 9a 0f 05 3f 0e 0b 37 be 4f a8 a6 3e bc af ab 3e
       0.5197693 -0.17875311 0.32550284 0.33532512

arith.constant1 f4 [16, 32]
000000 30 d8 5c be ba 5c 0d bd a2 a8 26 be 3a f3 09 3f
       -0.21566844 -0.03451226 -0.16275266 0.5388676
000010 e2 78 01 bc c1 39 59 3e d0 3a dc 3e 40 bd 86 3d
       -0.007902356 0.21213438 0.4301362 0.06579065
000020 c5 c0 e7 be 26 7e b6 3e 9c 67 0b bf f8 81 04 bf
       -0.4526426 0.3564312 -0.5445497 -0.51760817
000030 d6 85 b6 3e 99 ca 7a 3d 13 ec 1a bd 77 4e 4d 3e
       0.35648984 0.06122837 -0.037822794 0.20049463
000040 e7 b5 a1 bd b0 fa 8c be 2e 29 58 3d d5 db 85 3d
       -0.07896023 -0.2753501 0.052773647 0.0653607
000050 73 3a bc 3e da 52 02 bf 47 d4 9a 3e b2 06 c9 3e
       0.36763343 -0.5090767 0.3024008 0.3926292
000060 33 77 71 3e 93 2b 0d 3c 1b d6 1a 3e ce d5 04 be
       0.23580627 0.008616346 0.15120737 -0.12972185
000070 d3 08 e8 be 46 55 7a be ab 00 de be 80 90 9b be
       -0.45319232 -0.24446592 -0.43359885 -0.30383682
000080 d7 b8 55 3e 4e 9b 8e be 94 c9 99 bd 31 37 3b be
       0.20871292 -0.27852863 -0.07509151 -0.18282773
000090 25 ea ef 3d e0 7c a8 be d0 b0 ad be 05 4f 0d 3e
       0.117145814 -0.32907772 -0.3392396 0.13799675
0000a0 68 60 8f bd a7 a3 a1 bc 88 96 85 3e 0e f0 d3 3e
       -0.0700081 -0.019731356 0.2609141 0.41394085
0000b0 b1 81 1e be 0a b7 7a 3e dc 93 ff bd 88 63 10 be
       -0.15479161 0.24483886 -0.12479374 -0.14100468
0000c0 65 38 c3 bd 40 08 04 3e 16 10 00 be 6c 40 cf be
       -0.09532241 0.12893772 -0.12506136 -0.40478837
0000d0 70 5d c7 bd 6f a5 5e be 34 45 e3 bd b4 8b fa bb
       -0.09734619 -0.21742795 -0.11097184 -0.0076460484
0000e0 b1 84 7e be e1 fc bd 3e 6e f3 ad 3d 19 f3 f7 3d
       -0.24855305 0.37106994 0.08493696 0.12106914
0000f0 74 ff b8 bc af e3 2e be 2f 93 42 bd 2f 81 b3 be
       -0.022582747 -0.17079042 -0.047503646 -0.35059497
000100 cd cb 1e 3e 0c e1 98 be 23 37 1a 3e 7d 19 68 be
       0.15507431 -0.29859197 0.15060095 -0.22665973
000110 d3 09 c6 be 7d 6e 9d 3d 0f c4 9e 3e 62 28 b3 3e
       -0.3867937 0.076870896 0.31008956 0.34991747
000120 b5 d0 22 be 7d f9 cb be fe 7a 09 3e 11 1e 93 be
       -0.15899928 -0.39838782 0.13425824 -0.28733876
000130 ba 5f 66 be b1 49 b5 be 58 c6 4e 3e c9 8a 90 be
       -0.22497454 -0.35407785 0.2019285 -0.28230885
000140 97 75 fb 3c 50 ad d0 bd ce e0 de be b4 03 43 be
       0.03069572 -0.10189307 -0.43530887 -0.19044381
000150 1f 95 f7 3b 8f 96 8d 3e 92 57 5c 3e 76 b3 2c 3e
       0.0075556184 0.2765393 0.2151778 0.16865334
000160 1f d0 dd 3e c7 02 7b bd 12 9c b0 be 5e 90 8c 3e
       0.43322846 -0.061281946 -0.34494072 0.27453893
000170 8b d8 9a 3e 33 00 23 be 5f 03 8f be 0d 65 a9 be
       0.30243334 -0.15918045 -0.2793226 -0.33084908
000180 07 fa 97 3d f7 45 28 3e 4f 9e 9a 3e a4 e3 b6 be
       0.07420736 0.1643294 0.30198905 -0.3572055
000190 21 5e 26 3e af da 9b be b8 53 a3 bc 66 a5 07 3e
       0.16246845 -0.3044028 -0.019937381 0.13246688
0001a0 2b 30 e8 3e 08 02 a2 be 5e f0 8b 3e 09 91 b3 3e
       0.4534925 -0.31642175 0.27331823 0.3507159
0001b0 1b d0 8d 3e 01 e8 ae 3d 29 58 77 3e 47 7d 7b be
       0.27697834 0.08540345 0.24154724 -0.24559508
0001c0 bf 91 06 3f d7 65 bc be 9f 48 f0 3e 64 03 d7 3d
       0.5256614 -0.36796448 0.46930405 0.104986936
0001d0 1f 4e 3b 3e cd 6b fa 3d 79 8a 15 bd a9 44 45 bd
       0.1829152 0.122275926 -0.03650901 -0.048161183
0001e0 d7 c6 f5 3d 80 45 c9 3c d2 0c 65 3a fc d3 01 3e
       0.12000816 0.024569273 0.0008737567 0.12678522
0001f0 0d bf f3 3e 04 14 61 be 97 46 e5 3e 39 7e 4e bd
       0.47606698 -0.21980292 0.44780418 -0.050413344
000200 f5 52 92 3d 6a 8d cb be ec 95 b4 bd 6f d2 b3 3e
       0.07144729 -0.39756328 -0.08817658 0.35121486
000210 68 e2 b4 bd fb 0b cf 3e de cb af bd 97 98 f4 3e
       -0.08832246 0.40438828 -0.085838065 0.47772667
000220 6c 07 58 be 43 e6 e9 3e 74 ae 0a bf 82 c7 64 be
       -0.21096581 0.45683488 -0.54172444 -0.22341731
000230 18 64 51 3e 1b ff d0 3e 5e 36 3c be d0 45 3f 3e
       0.20448339 0.4081963 -0.18380114 0.18678975
000240 a2 13 72 3c 55 71 ba be bd bb a0 be b8 38 fb bd
       0.014775189 -0.3641459 -0.31393233 -0.122666776
000250 2d 24 44 3e 2c cc d9 be 37 ef 86 3e c3 e1 6d 3d
       0.19154425 -0.42538583 0.2635438 0.05807663
000260 fa 40 af 3e 36 92 8d be 88 8c 7e be 1f 43 cc be
       0.3422926 -0.27650613 -0.24858296 -0.3989496
000270 52 14 78 be 2a 28 8c bd 52 37 75 bc 8c 6d 85 bd
       -0.24226502 -0.06843598 -0.014966803 -0.06515035
000280 e9 ae 95 bd 6a b4 06 be 42 5c 40 3e e8 59 e8 3d
       -0.07308752 -0.1315476 0.18785194 0.11345273
000290 f7 e3 db 3e 12 bd a8 bd 30 5b dc be fa 02 29 3c
       0.4294736 -0.08239187 -0.4303832 0.010315651
0002a0 36 1e 66 3e cb de 51 be 99 04 83 be d1 f1 c0 3e
       0.22472462 -0.20495145 -0.25589445 0.3768449
0002b0 75 3d f4 be e0 f3 bc 3e 53 4f d8 3d 19 01 9d be
       -0.47703138 0.36904812 0.10562005 -0.306649
0002c0 81 3c e1 3e 9c 30 17 bd 38 5e 14 3f c5 d2 f8 bc
       0.43991473 -0.036911592 0.57956266 -0.03037394
0002d0 be aa 96 be df c3 5b be c1 84 cc be 4f d8 f6 be
       -0.2942714 -0.21461438 -0.39945033 -0.48211905
0002e0 fc 6f 21 3d 06 1c 8b 3d a2 fa b6 bc d9 f0 86 3e
       0.039413437 0.067924544 -0.022336308 0.26355627
0002f0 34 b3 c6 3e 9c 79 31 be 4c e6 79 3b b8 3b 51 3e
       0.38808596 -0.17331547 0.0038131652 0.20432937
000300 fc ac 77 bc d4 f0 ca 3e 38 41 85 3e b8 f6 ae be
       -0.015116926 0.39636862 0.2602632 -0.34172606
000310 67 f3 08 3f 94 56 13 be 9f e1 5f 3e de 50 a4 be
       0.534964 -0.14388496 0.21863411 -0.32092947
000320 19 b0 98 3e 05 af 8d be 4e f8 80 3d f4 e8 b2 3e
       0.29821852 -0.27672592 0.0629736 0.34943354
000330 37 47 6c 3e f3 64 6d be 78 bf 8d 3e 1b 56 d8 bb
       0.23074041 -0.2318304 0.27685142 -0.0066020614
000340 c2 06 a0 3e f8 6b 09 bf 1a 58 3d 3e ac 39 eb 3e
       0.31255156 -0.5368037 0.1849064 0.45942438
000350 59 8b b9 bc 48 92 d7 3e 14 d4 bc be c7 e4 df bd
       -0.022649454 0.4210379 -0.36880553 -0.10932308
000360 0f 51 83 3e 32 31 a5 bd 07 70 01 3f 26 ac 03 3f
       0.2564778 -0.08066024 0.50561565 0.5143455
000370 4e 87 9e 3e 79 28 8b 3e 6e ed b7 3e 00 d8 9a 3e
       0.30962604 0.27179316 0.35923332 0.3024292
000380 f9 a5 5c be 8f 46 e1 be 13 29 be be 83 14 54 3c
       -0.21547689 -0.43999144 -0.37140712 0.0129443435
000390 74 2d 75 be 8e c3 1a 3e 66 50 7c 3e 42 de 2e 3e
       -0.2394312 0.1511366 0.24640045 0.17076972
0003a0 7e 71 c2 be a6 e0 75 3e 2b c9 23 be 35 2b 77 be
       -0.37977213 0.24011478 -0.15994708 -0.24137576
0003b0 5d 15 c9 3d 0c 54 a3 3e 5f d5 4e be df 4a b0 3e
       0.09818528 0.3190006 -0.20198582 0.34432122
0003c0 8d 4a 47 be 06 13 00 be bc a4 d5 be 60 94 5a 3e
       -0.19462033 -0.12507257 -0.41727245 0.21345663
0003d0 e4 5b df bd f9 ff 50 be 09 02 28 be 73 7f 33 3d
       -0.109061986 -0.20410146 -0.16407026 0.043822717
0003e0 ce dc 98 3e 72 4d 16 bd 4a 81 51 be c7 3f d6 bd
       0.2985596 -0.03669495 -0.20459476 -0.10461383
0003f0 01 bb 3a be 3a c8 96 bd 25 84 81 bd 14 fb 7e 3e
       -0.18235399 -0.07362409 -0.06324033 0.24900466

arith.constant2 f4 [32, 64]
000000 43 7a 3d bc e6 91 46 be 6d 42 5e 3c 35 72 8f 3e
       -0.011564794 -0.19391593 0.013565642 0.2801682
000010 30 57 f2 3d 98 39 46 be c9 3a 01 3e 99 a1 89 be
       0.11833036 -0.19357908 0.12620081 -0.26881102
000020 47 0c 86 be 71 ba 95 be cd 49 13 3e 6d d1 1b be
       -0.26181242 -0.29243806 0.14383622 -0.15216608
000030 77 0a d9 bd 40 8d fc 3d 21 f2 18 3e 2c b6 1e bd
       -0.10597699 0.12331629 0.14936115 -0.03874795
000040 3f a7 30 3e 6c 92 85 bc 7b 73 b9 bc 19 0a c1 3d
       0.172513 -0.016305171 -0.022638073 0.09425754
000050 3c 41 38 3e 7f 72 b3 bd 89 eb 79 be f2 65 56 be
       0.17993635 -0.08762073 -0.24406256 -0.20937327
000060 1f 6a ce bd 47 02 18 be 61 bf 2b 3e c2 f4 5e bb
       -0.10078835 -0.14844619 0.16772224 -0.0034020399
000070 4a c9 07 3d 25 6f b0 be 62 58 e4 3d fc 66 69 be
       0.03315095 -0.34459797 0.1114967 -0.22793192
000080 3a d8 5e 3e 93 e2 57 be 70 29 15 be ee 99 1d 3c
       0.21762171 -0.21082525 -0.14566588 0.009619219
000090 55 2c b6 be 11 23 9a 3e 3b 80 1e 3d 0a 2a 23 3e
       -0.35580698 0.3010488 0.03869651 0.15934005
0000a0 7f 63 0d 3e 52 bb 04 3f be 32 9c be e1 df cd 3b
       0.13807486 0.5184833 -0.30507463 0.006282792
0000b0 66 89 3b 3b 65 c1 52 3e 88 13 d6 be 69 e5 98 3d
       0.0028615831 0.20581587 -0.41811776 0.074656315
0000c0 60 60 70 bc 00 0d 3b be f2 8c 71 3d a4 23 65 bd
       -0.014671415 -0.18266678 0.058972307 -0.055942193
0000d0 ea e7 80 3a 9c ac 03 3e 01 b5 8e 3e bd 35 1b be
       0.0009834741 0.12858814 0.2787247 -0.15157218
0000e0 55 9e 64 bd 2f 41 8a 3d f7 ad 18 bd 98 4e af be
       -0.05581506 0.06750714 -0.03727528 -0.3423965
0000f0 2c 91 3b be 09 c0 36 be 07 c8 06 be 79 64 48 3e
       -0.18317097 -0.17846693 -0.13162242 0.19569577
000100 89 6b da 3c 4d 31 d0 3e 7a 04 22 bc e9 bf 54 3e
       0.026662605 0.40662614 -0.009888763 0.20776333
000110 d8 d8 2e 3e 29 39 4c 3e 10 45 5b 3d a6 ad 49 3e
       0.17074907 0.1994368 0.05353266 0.19695148
000120 47 89 84 be dd 6a 13 be 61 a1 8d be df a8 5c 3d
       -0.25885984 -0.14396234 -0.27662185 0.053871986
000130 18 88 00 3f ca 7b b7 3d 19 5a aa bb ba 11 34 3e
       0.5020766 0.08959158 -0.0051987288 0.17584887
000140 2e 92 f2 3d fc 98 94 3d 2b e4 a8 be 95 ae e8 3d
       0.11844288 0.07255742 -0.32986578 0.11361424
000150 4e 50 55 3c 7f 8f 19 3e b1 d8 91 3e e3 7e 0e be
       0.013019634 0.14996146 0.28485635 -0.13915591
000160 96 1b 8c 3d e2 43 d2 3d d0 84 88 3e af e3 9e 3c
       0.06841199 0.10266854 0.26663828 0.019395677
000170 5d fa 97 3e 47 82 87 be 51 f1 b3 be 00 57 ca 3c
       0.296832 -0.2646658 -0.35145047 0.024699688
000180 e3 ac 5c bc 11 6d 28 be 7e 10 62 bd de 97 6e bb
       -0.013468954 -0.16447856 -0.05519151 -0.0036406438
000190 3f ff 7b 3c c5 f3 8c 3e 56 e6 44 3d 0e 29 82 3b
       0.01538068 0.2752973 0.048071228 0.0039721793
0001a0 38 1f 80 be 57 73 94 3e 63 ea 71 be b6 6a 3d 3e
       -0.25023818 0.28994247 -0.23624568 0.18497738
0001b0 4d 95 8b 3e 7e a7 ca bd 33 9a 00 bd f0 e0 00 be
       0.27262345 -0.09895228 -0.031397056 -0.12585807
0001c0 d9 c4 f2 3d 87 ff ca be 07 c0 da 3d 50 db 36 be
       0.11853952 -0.39648077 0.106811576 -0.17857099
0001d0 c7 69 c4 be 09 cd b8 bc b4 4c 85 3e 15 31 a8 3e
       -0.38361952 -0.022558706 0.26035082 0.32849947
0001e0 3e e9 99 bd 6b 14 83 3d 70 7d 97 bd 6b f8 86 be
       -0.075151905 0.06400379 -0.07396972 -0.26361403
0001f0 cf ba 0c be c1 e9 a1 3e e8 25 cc be bf 6e 92 bd
       -0.13743137 0.31623653 -0.3987267 -0.071500294
000200 a9 79 68 be bc c1 68 3e ab ce 06 be 59 a8 f9 3c
       -0.2270266 0.22730154 -0.13164775 0.030475782
000210 82 a4 0e 3e c7 6b 1d be ce 42 0e 3e 6f 4b c8 bd
       0.13929942 -0.15373145 0.13892671 -0.09780013
000220 b5 8a 93 bd cc e9 80 be 9c 44 16 bd 09 58 6a bd
       -0.07204191 -0.25178373 -0.036686525 -0.057212863
000230 2b b9 b2 3e 60 38 b5 3e 57 5e 2e 3e cd ed 75 3e
       0.34906897 0.35394573 0.17028175 0.24016495
000240 cc 05 6e 3e 00 d2 8c 3d 99 54 26 be 65 24 29 3e
       0.23244399 0.06875992 -0.16243209 0.1651779
000250 32 18 86 3c e5 81 04 3e 4a 38 8c be 56 a7 7a be
       0.01636896 0.12940176 -0.27386695 -0.24477896
000260 53 97 ad be 32 dd 8b bd 95 fa 51 bc 9a c8 10 3e
       -0.33904514 -0.06829299 -0.012816091 0.14139023
000270 ff a5 7f 3c d2 88 f9 bd 04 fd 24 3e 07 1a e4 be
       0.015603541 -0.121842995 0.16112143 -0.44551107
000280 30 25 64 3e 95 f9 0c 3e a5 c7 a2 be fa 80 8a be
       0.22279811 0.13767083 -0.31792942 -0.27051526
000290 59 fb 48 bd 1a 35 ba bc d4 63 d7 3c 27 a9 25 be
       -0.04906783 -0.022730399 0.026292719 -0.16177808
0002a0 e2 d4 6c be f5 62 85 bd 7c 77 8f bd cd 39 91 bd
       -0.23128083 -0.06513015 -0.07005212 -0.07091103
0002b0 bc 9a ba 3e 12 7d 32 3e 63 fc 8e 3e 51 9a 0a 3d
       0.36446178 0.17430523 0.2792693 0.033838574
0002c0 09 bd 1f 3e 9a 79 0d 3e dd 32 92 3e d6 d2 16 be
       0.15599455 0.13815919 0.2855443 -0.14728865
0002d0 18 a1 f2 bd 3d 2e 57 3e 0f 57 d1 3e 57 ff 06 be
       -0.118471324 0.21013732 0.40886733 -0.13183342
0002e0 be b9 11 bd a5 e9 47 be 44 f6 76 3e a5 3f b1 b9
       -0.03557753 -0.19522722 0.2411738 -0.0003380749
0002f0 00 b6 bd be bd f7 2e 3e 59 9e 02 be 7b 26 e5 bd
       -0.37052917 0.17086692 -0.12755717 -0.1118898
000300 95 8c 4f 3e b6 9a c5 be 99 77 27 3e f2 8e 1b bc
       0.20268472 -0.38594598 0.16354217 -0.00949453
000310 11 bc b6 be b3 e8 46 3e 06 e8 83 be b8 9c 85 3e
       -0.35690358 0.19424705 -0.25762957 0.2609613
000320 db 19 1f be 5e 8e 92 be c5 50 7c bd 6b 58 3f bc
       -0.15537207 -0.28624243 -0.061600465 -0.011678795
000330 73 e9 f2 bd dd 41 93 be fb a5 89 bd 37 07 97 bd
       -0.11860933 -0.28761187 -0.067211114 -0.07374423
000340 81 cd 91 3c 19 e4 16 be 91 72 9f 3e f6 c6 64 be
       0.017798187 -0.1473545 0.31142095 -0.22341523
000350 ee 60 1f 3e 63 d6 ae be 76 5c 43 3e d4 7d 82 3d
       0.1556432 -0.3414794 0.1907824 0.06371656
000360 47 a7 ca bc 9c 70 9d be b5 1c 34 be 0a 69 43 be
       -0.024737967 -0.30749977 -0.17589076 -0.19083038
000370 4c 68 e6 3d d1 05 7b 3e 17 75 75 3e fe 0d 8d be
       0.11250362 0.24513938 0.23970447 -0.27549738
000380 98 54 3f be 71 96 5e 3c 31 f2 5f be 9c a8 53 bd
       -0.18684614 0.013585673 -0.21869732 -0.05167447
000390 64 69 26 3d 42 ca 46 be a0 64 dc bc c8 b5 5a bc
       0.040627852 -0.19413093 -0.02690345 -0.013349004
0003a0 64 ef 6a 3e 9f 71 50 be a0 4c 9b 3e e0 e1 28 3e
       0.22942883 -0.20355843 0.30331898 0.16492414
0003b0 be df de 3d 07 da f6 bd 3f 4e 0e bd f9 dc 33 bc
       0.10882519 -0.12053304 -0.03474259 -0.010977977
0003c0 ef 29 3d be c1 2a 50 3e 63 6f e4 bd 72 a3 f8 3d
       -0.18473028 0.2032881 -0.11154058 0.1214055
0003d0 4d 34 5b 3e a6 8d 5c be f0 fd 33 be 87 0a 8f be
       0.2140667 -0.2153841 -0.17577338 -0.2793772
0003e0 b7 17 23 be 98 ee 08 be 4c 61 04 be 95 b2 1c 3e
       -0.15927015 -0.13372266 -0.12927741 0.15302499
0003f0 25 20 8f be 09 1e 79 be 66 15 8a 3e 53 de 08 3e
       -0.27954212 -0.24327864 0.2696945 0.1336606

arith.constant3 f4 [64, 128]
000000 31 a0 0b 3c ff c8 22 3e 05 f3 3b 3c 42 6d 41 bf
       0.008522079 0.15896986 0.011471515 -0.7555734
000010 54 7a d4 3d d8 c0 5d 3c d6 bb 55 3e c4 3c e0 3d
       0.10374895 0.013534747 0.20872435 0.1094909
000020 2f b9 f2 be 0c c3 04 bd 57 fe d4 bd 91 ad 2b 3e
       -0.4740691 -0.032412574 -0.10400074 0.16765429
000030 e2 16 d1 be ea 5e 87 bd 59 36 e5 3d 89 45 c3 3e
       -0.4083777 -0.066099 0.111920066 0.3813899
000040 57 fc f3 bc ef 5e a7 be 9a fa 2a be e1 76 09 3c
       -0.029783411 -0.32689616 -0.1669716 0.008390159
000050 fe 8f bd 3c 1a d9 f3 3d 61 4f e9 bd d5 b7 50 3d
       0.02313995 0.11906643 -0.113920934 0.050956566
000060 43 79 5d 3c 65 e1 f5 be b5 4b a0 bd 00 06 b7 bd
       0.013517681 -0.48023525 -0.0782694 -0.08936691
000070 0d e3 49 be 13 7d 1f be 46 dc 66 bd 1e 87 91 be
       -0.19715519 -0.15575056 -0.056362413 -0.284234
000080 20 21 34 be b8 f3 c6 3d e1 93 91 bd 57 18 e1 bc
       -0.17590761 0.097144544 -0.07108284 -0.027477426
000090 05 55 5c 3e 45 cc 87 bd 03 5e a9 3d 9d 5e 8f be
       0.21516807 -0.06630758 0.082698844 -0.28001872
0000a0 cb 33 8d bd 8a b0 d8 bd 4d b4 a4 bd bd 1f e6 be
       -0.06894644 -0.10580547 -0.08042202 -0.4494609
0000b0 14 89 cc 3a 94 21 0b bd 52 42 48 3e c6 7d 25 bd
       0.0015604817 -0.03396757 0.19556549 -0.04040315
0000c0 7c a0 49 be bf 89 41 bc 97 f7 32 bc 25 62 b6 be
       -0.19690126 -0.011812626 -0.010923288 -0.35621753
0000d0 0e 33 e5 3d 57 17 d0 3c 13 5e 45 3d 7c 2c 25 3e
       0.111913785 0.025401754 0.04818542 0.1613025
0000e0 41 b8 2c 3e 4e c5 f2 bc 15 1a 13 3d ef 54 c3 3b
       0.16867162 -0.029635098 0.035913546 0.0059610526
0000f0 dd f6 81 be 64 03 2f bf 70 3a 1e 3e fb 2c a5 be
       -0.25383654 -0.6836455 0.1545198 -0.3226088
000100 e0 73 a1 bd 4d 34 16 3e df 00 39 3d ea 20 45 bb
       -0.078834295 0.14668389 0.045166846 -0.0030079433
000110 96 d7 2a 3e 8a f2 94 bd 5a 42 01 bf 39 21 04 be
       0.16683802 -0.07272823 -0.5049187 -0.12903298
000120 06 0d 44 3e a7 36 ea bd eb 14 1b be c6 03 81 3d
       0.19145593 -0.11436205 -0.15144698 0.06299548
000130 02 48 34 be c1 67 f1 bd 18 b9 cb be 36 94 4f 3e
       -0.17605594 -0.117873676 -0.39789653 0.20271382
000140 74 7d 75 3d 4f d2 c4 be 29 0e 82 3d 4b 09 74 3d
       0.059934095 -0.38441703 0.06350357 0.059579175
000150 a7 1a 0f 3e 71 99 a7 3d 3c 9b e6 bc 7d 27 29 3e
       0.13975011 0.081835635 -0.028150193 0.1651897
000160 2d 99 27 bc 7a 71 b5 bc e0 89 3e bd c9 5d be bd
       -0.010229391 -0.022148836 -0.046518207 -0.09295232
000170 9e 10 37 3c 90 86 b3 be 05 c4 04 bd f8 34 50 3d
       0.011173395 -0.350636 -0.0324135 0.050831765
000180 19 39 7f 3e 42 53 f2 3d 3a 65 52 3e a3 1a cd bd
       0.24924125 0.118322864 0.20546427 -0.10014846
000190 ba 44 90 3d 4e 8c 95 bd bd 0a 30 bd cd 2d d1 3d
       0.070443586 -0.073021516 -0.04297899 0.10213814
0001a0 d4 f3 7c 3b 25 e9 10 bf 6f f1 9d bb 3b c8 0f 3e
       0.0038597481 -0.5660575 -0.004820041 0.14041226
0001b0 79 6b b7 bd 3c 46 95 bd 0c 6a e9 bd ac f7 f8 3b
       -0.08956046 -0.07288787 -0.1139718 0.007597884
0001c0 de 27 03 bf 2a ee cb be f4 00 1b bc 4f a6 61 bd
       -0.5123271 -0.39830142 -0.009460676 -0.055090245
0001d0 2c 07 44 be 9b 41 f4 be bc c1 fa bd 2e 91 0b bf
       -0.19143361 -0.47706303 -0.12243983 -0.545184
0001e0 75 5b cb 3d 1c 69 9e bd 37 0b 17 3e 75 3d d2 bd
       0.099295534 -0.07734892 0.14750372 -0.10265628
0001f0 11 ad d6 be 96 83 16 3e 5f ad b0 bb d0 35 c2 bd
       -0.41928914 0.14698634 -0.005391761 -0.0948292
000200 20 c9 36 bb 2b 83 4a 3e 50 8f 47 bd 21 4d 93 3e
       -0.0027890876 0.19776599 -0.048720658 0.28769782
000210 22 26 85 bd b6 87 c2 bc 73 b7 88 be 2b e8 f5 bd
       -0.06501414 -0.023746353 -0.2670246 -0.12007173
000220 b6 d5 85 3d 91 26 41 be 33 53 b5 3d b1 52 b8 be
       0.06534903 -0.18862368 0.088537596 -0.3600059
000230 ad f1 76 bd b3 94 4b be 87 b2 42 3d f8 88 68 3d
       -0.060289074 -0.19880943 0.04753354 0.05677125
000240 bf 32 bd be 9f 49 b1 3c 44 33 39 be 11 54 09 be
       -0.3695278 0.02164155 -0.18085963 -0.13410975
000250 b2 69 0b 3e b7 7c 02 3d 2d e7 35 3d 8b a5 a3 bd
       0.13614538 0.03185722 0.04440992 -0.07990559
000260 04 c0 2a bc c1 60 2b 3e 4d a6 0c be 72 9e cf bd
       -0.010421757 0.16736127 -0.13735314 -0.10137643
000270 2d 7b 26 3e 5e 92 db bd 95 8b f3 bb a7 e3 01 3e
       0.16257925 -0.10721277 -0.007432411 0.12684499
000280 2a ac 3f 3f 16 ab 30 bc 32 63 5b bd 5f 4b 1b be
       0.74872077 -0.010782978 -0.053561397 -0.1516547
000290 4b f3 ac 3d 67 fc 7f bc 88 d4 8e bd f2 da 96 3c
       0.08444842 -0.015624142 -0.06974131 0.018414948
0002a0 71 c9 a3 be cd e3 83 3d 5d 79 df 3d 7b 42 00 be
       -0.31989625 0.06439934 0.1091182 -0.1252536
0002b0 4c dd 35 3e 0b 2e 9e bd 84 34 8a 3e d5 4c 24 bd
       0.177602 -0.07723626 0.2699319 -0.040112335
0002c0 a2 c9 bb 3d 10 7a dc be d8 59 9a bd 8a 3e 75 3e
       0.09169318 -0.43061876 -0.075366676 0.23949638
0002d0 05 0d 3f be 6d 7d 05 bf 62 5f 0d bd 4f bb f1 3d
       -0.1865731 -0.5214451 -0.034514792 0.118033044
0002e0 86 0b 41 be 32 50 c9 bd bb 28 08 3d 77 6e f1 3d
       -0.18852052 -0.09829749 0.03324197 0.117886476
0002f0 98 56 03 be 2a 0b 12 3e 82 57 1e 3e c1 36 ab bd
       -0.12826002 0.14262071 0.15463069 -0.08360053
000300 cd 59 6c 3b bf 1c c1 3e 22 20 d6 bd 77 b9 98 3d
       0.0036064268 0.37717244 -0.104553476 0.074572496
000310 fd 77 cf 3d 65 be 81 bc d1 4a b0 be f5 b1 16 be
       0.10130308 -0.015837857 -0.3443208 -0.14716323
000320 56 f1 d0 3a 17 5f 79 be 07 87 bd bc b3 c5 3d be
       0.0015941064 -0.2435268 -0.023135675 -0.18532448
000330 67 1f d2 3c 87 d3 66 bb 99 d1 73 bd cf 91 e3 3d
       0.02564974 -0.0035221295 -0.05952606 0.11111795
000340 ed 98 ba bd 78 4b dd 3e 49 7d 2c 3d a9 8f 79 bd
       -0.091111995 0.4322164 0.04211167 -0.06092802
000350 b2 66 b0 bc 14 22 c1 be 6d 93 94 be 9d ab ec 3d
       -0.021533344 -0.37721312 -0.29018727 0.1155617
000360 c9 e2 1b 3c cc b0 32 3d fe a9 ca bb 96 3e 1f be
       0.009514519 0.043625638 -0.0061848154 -0.15551218
000370 49 39 92 3d b4 ef 20 3b 38 e2 98 bc 30 2e 5d 3e
       0.071398325 0.0024556937 -0.018662557 0.2159965
000380 9d d3 28 3e f6 f9 22 3e dc fd 7a 3d 7e 38 80 be
       0.16486974 0.15915665 0.061277255 -0.250431
000390 ee 08 d9 3c 8b c6 6e 3c a9 d5 44 bc 71 a3 4d 3c
       0.026493516 0.0145737035 -0.012013831 0.0125511745
0003a0 2c 01 05 3d 07 22 7e 3e e9 fb c1 3d 50 1a 0b 3e
       0.03247182 0.24817668 0.09471876 0.13584256
0003b0 24 54 a6 3d af f1 20 be aa bb 2c bd 4c 26 b2 bd
       0.08121517 -0.15717195 -0.042171158 -0.08698711
0003c0 f3 83 96 be 09 19 c3 3d c1 a5 9f be eb 94 3b 3d
       -0.29397544 0.095262595 -0.31181148 0.045796316
0003d0 cf e6 b2 3d 8c 43 10 bd d0 49 20 3e d9 f3 8c 3d
       0.087354295 -0.035220668 0.15653157 0.06882448
0003e0 3d 87 9b 3d e7 e3 cb 3d 6d b9 c9 3c 7b 71 c6 3d
       0.07594154 0.09955578 0.02462455 0.096896134
0003f0 f3 86 ac 3d 28 f7 1e 3e 93 f0 f4 bd 27 40 a3 3c
       0.08424177 0.1552397 -0.119599484 0.019928051

arith.constant5 f4 [16]
000000 7c 76 97 3e 98 5f 8e bd 75 6c 55 3e bb 6c 12 bd
       0.29582584 -0.06951827 0.20842154 -0.035748225
000010 4c 30 91 3e 14 8e 13 3e f4 1a f1 3c 0b 78 9b 3e
       0.2835716 0.14409667 0.029431798 0.30365023
000020 5c 7e 6f 3e f5 67 f2 3d c6 8e a6 3e e9 51 f3 3d
       0.23388046 0.118362345 0.32530802 0.118808575
000030 15 b6 ad 3d 7a 52 9e 3a 13 2d ac 3e 33 6b 7a ba
       0.08481995 0.0012079023 0.3362814 -0.0009552717

arith.constant6 f4 [32]
000000 69 70 dc 3d 0f 89 e0 3c 49 2e 63 3d 3b 27 b8 3d
       0.10763628 0.027409105 0.055464063 0.089918576
000010 10 6e 07 3e d3 44 a6 3d 74 e8 a6 3d ab 97 2b 3e
       0.1322558 0.08118596 0.08149806 0.16757075
000020 76 34 46 3d 90 77 c2 3d 7c bc e2 bd 82 3e 7e ba
       0.048389874 0.09495461 -0.11071107 -0.00096986454
000030 2d 96 8b 3d 38 e1 55 3e e9 6e 45 bc ed 34 ed 3d
       0.06815753 0.20886695 -0.012050369 0.115823604
000040 34 f3 85 3d 67 00 23 be 9e 81 d2 3d b7 9e 8b bd
       0.06540528 -0.15918122 0.10278629 -0.06817382
000050 eb 51 cb 3d 53 5b 6e be 3e 10 db 3d fb 96 2b 3d
       0.09927734 -0.23277025 0.10696457 0.041892033
000060 7d 60 87 3e 90 91 f7 3c eb a6 b8 3d 00 75 9b 3d
       0.26440802 0.030220777 0.09016212 0.07590675
000070 83 53 6a bd 5c e2 ff bb 72 e7 d3 3c ab b5 ed 3d
       -0.05720855 -0.0078089666 0.025867198 0.11606916

sequential_1/dense_1_2/BiasAdd/ReadVariableOp f4 [64]
000000 3c 01 02 bd bb dd 2b be 40 51 ad 3c ef 25 6a 3d
       -0.03173946 -0.16783802 0.021156907 0.057165083
000010 17 f5 1e bd c6 bc d6 bd 82 ec 5a bd 21 21 11 3d
       -0.038807955 -0.104852244 -0.053448208 0.035431985
000020 dd 12 69 bc a2 6c 7c bd cd 95 75 bc 36 be 44 3d
       -0.014225689 -0.061627038 -0.014989329 0.04803296
000030 d6 38 93 be a1 6c a2 3d 07 59 7a 3c 83 1e c8 bd
       -0.287543 0.079308756 0.015280015 -0.09771445
000040 d5 0f 6d bd 05 b9 17 be 97 5c 72 3d a2 a6 25 be
       -0.057876427 -0.14816673 0.05917033 -0.16176847
000050 3e b6 34 3d f2 bd 06 bc e8 f4 59 3d 4f 2b 3b bc
       0.044119112 -0.008223997 0.053212076 -0.0114239
000060 ac 54 51 3d 7c ab 63 bd f8 70 53 bd 99 e2 23 be
       0.05110614 -0.055583462 -0.051621407 -0.16004409
000070 59 19 83 be 69 fa 98 3b 9a 18 1f bd 85 f0 be 3d
       -0.25605276 0.004668523 -0.03884182 0.09323219
000080 81 78 5d bd 1f ca 84 bd d6 5e 2f 3d 67 eb 65 3d
       -0.05407 -0.06483864 0.042815052 0.0561327
000090 9e 08 3e 3d f1 af 1e bd 20 f0 e9 3b 84 57 e7 ba
       0.046394937 -0.03874201 0.007139221 -0.0017649983
0000a0 01 8b 51 3c 8b 78 2d bd fe d9 4a 3c 46 1e 99 3d
       0.012789489 -0.042351287 0.012381075 0.07476477
0000b0 79 ed a2 bd cd 8e de bd d3 10 d0 bd aa 36 03 be
       -0.079554506 -0.10867081 -0.10159459 -0.12813821
0000c0 43 36 57 be 8a 34 22 bb 20 6f 90 3d c1 a2 96 3d
       -0.21016793 -0.0024750554 0.070524454 0.073552616
0000d0 92 c0 05 3d eb 02 78 3d 1d 1d 03 ba c3 b9 98 be
       0.032654352 0.060549658 -0.00050015916 -0.29829225
0000e0 f9 53 70 be 93 c8 80 bd f3 bd 12 3e 5d 37 0d 3d
       -0.23469533 -0.062882565 0.14330272 0.034476627
0000f0 2a 3f 3d be 44 b8 d9 bd e5 b8 04 3d 86 ee ce bd
       -0.18481126 -0.10630849 0.03240289 -0.101040885

sequential_1/dense_1/BiasAdd/ReadVariableOp f4 [128]
000000 c1 7a 46 be 49 e6 80 be 40 07 0a be 85 e7 b4 be
       -0.19382764 -0.25175694 -0.13479328 -0.35332885
000010 7c 02 40 be 0c d7 cc bd cf f2 a8 bd 31 e1 fb bd
       -0.18750948 -0.100019544 -0.08249437 -0.12298811
000020 aa bc 91 bd 36 00 41 be 28 45 f2 bd 97 73 6c be
       -0.07116063 -0.18847737 -0.11829597 -0.23090969
000030 6c 5b 80 be 8d 23 b4 bd 3c cc a6 bc ba 83 39 be
       -0.2506975 -0.08795843 -0.020361058 -0.18116656
000040 27 50 fe bd 3c eb 34 be 97 d7 8b be fb 26 4c bd
       -0.124176316 -0.1766786 -0.2731292 -0.049841862
000050 ad 75 19 be f3 f0 37 bd 71 7f 1d be bb bd 9d bd
       -0.14986296 -0.04490752 -0.15380646 -0.07702204
000060 0d fb 94 be 10 39 5d bc 76 a8 68 be af 8a e9 bd
       -0.29097787 -0.013502374 -0.22720513 -0.11403405
000070 33 e1 80 be e5 b9 49 be 76 1c 86 bd d3 5a 0b be
       -0.25171813 -0.1969982 -0.06548397 -0.13608865
000080 3b e2 d2 be 1b df 18 be f8 3e e4 bd 87 08 0b be
       -0.41188225 -0.14928858 -0.11144823 -0.13577472
000090 57 53 3a be 25 87 8d be 5a c1 35 be 63 b1 85 bd
       -0.18195854 -0.2764217 -0.17749539 -0.065279745
0000a0 62 e7 6e be 41 2d 59 bd f9 a5 07 be 99 40 86 bd
       -0.23330453 -0.053021673 -0.13246907 -0.0655529
0000b0 b2 e2 2f be 01 08 9a bd 57 7a a7 be 26 5b 79 be
       -0.17176321 -0.07521058 -0.32710525 -0.24351177
0000c0 69 97 45 be 9e f9 0a be c3 8c 58 be 89 a5 45 be
       -0.1929604 -0.13571784 -0.21147446 -0.19301428
0000d0 21 2f a7 be 5b 1c 86 be ae 72 23 be 32 6e ea bd
       -0.32653144 -0.26193509 -0.15961716 -0.11446799
0000e0 1f a5 23 be c9 72 3c be 3c be 37 bd 98 c5 fc bd
       -0.15980957 -0.18403162 -0.044859156 -0.123423755
0000f0 9d e0 78 be eb a1 fb bd 49 a5 4f be 30 dd 46 bd
       -0.24304433 -0.12286743 -0.20277895 -0.048550785
000100 d0 5c d7 bd 48 0f 80 be e4 bc e6 bd a1 22 33 be
       -0.105157495 -0.2501166 -0.11266497 -0.17493679
000110 91 7a 0b be 18 83 f9 bd 47 c1 17 be ee d0 39 be
       -0.13620974 -0.12183207 -0.14819823 -0.18146107
000120 d8 86 89 be c1 d8 91 be c7 e3 45 be c6 17 c5 bd
       -0.2686069 -0.28485683 -0.19325171 -0.09623675
000130 8b 2d 1c be 4f 42 50 be 2a 2f 84 be ae 63 ac bd
       -0.15251748 -0.20337795 -0.25817233 -0.0841745
000140 43 87 13 be 98 10 31 be d9 a1 20 be c7 35 9f be
       -0.14407067 -0.17291486 -0.1568674 -0.31095716
000150 e8 4b 17 bd 06 a8 c3 be 13 5b 42 be c2 6a ce bd
       -0.036937624 -0.3821413 -0.18980055 -0.10078956
000160 78 55 13 be ed 09 c1 3b b9 2e 59 3d a4 e6 c7 bd
       -0.14388072 0.005891076 0.053023074 -0.09760788
000170 8f 5e df bd 71 7b 3b bd 93 ef 89 bd fc 00 82 bd
       -0.109067075 -0.04577202 -0.06735148 -0.06347844
000180 b9 b8 96 bd 89 63 e2 bd 97 96 36 be 41 2b 78 be
       -0.07359452 -0.11054141 -0.17830883 -0.2423525
000190 13 16 39 be 28 6d 07 be 63 15 2e be e1 96 64 bc
       -0.18074827 -0.13225234 -0.17000346 -0.013951988
0001a0 06 2b 03 be cb 7b 95 bd 43 50 6e be 12 99 71 bd
       -0.12809381 -0.07299002 -0.23272805 -0.05898387
0001b0 36 aa 93 3a 40 fb 0e be d7 e4 28 bd 22 97 2b be
       0.0011265937 -0.13963032 -0.041233864 -0.16756871
0001c0 32 65 44 be 7b 77 5a be d0 8b 1b be 47 5e b0 bd
       -0.19179228 -0.2133464 -0.15190053 -0.08611732
0001d0 29 63 87 be aa 18 41 3c 37 06 66 be 69 a2 6b be
       -0.2644284 0.0117856655 -0.22463308 -0.23011173
0001e0 79 db ed bd a6 93 13 be 68 38 2d be cb 13 32 be
       -0.11614127 -0.14411792 -0.16916049 -0.17390363
0001f0 38 b6 98 be 74 a2 be bd 3b 0f 9c bd c2 a0 97 bd
       -0.29826522 -0.09308329 -0.076200925 -0.07403709

sequential_1/dense_1/MatMul f4 [128, 10]
000000 8c 25 1c 3e 37 82 ad 3c 7a 27 c7 bd a0 42 33 3d
       0.15248698 0.021180255 -0.097243264 0.04376471
000010 c1 a5 0b be 2c 84 f9 bc 7c 5d 65 3d 64 94 53 be
       -0.13637449 -0.030458532 0.055997357 -0.20662075
000020 bb 7f d7 bb d0 87 02 3b 2f 76 14 be 58 f0 e4 be
       -0.006576506 0.0019917376 -0.14498208 -0.44714618
000030 be 84 1e 3e 25 e5 b0 bd 87 b1 2a be 87 c8 c4 bd
       0.15480325 -0.08637456 -0.16669284 -0.0960856
000040 1b 14 9b 3c c9 af a9 bd 1a e7 66 3c 89 67 96 3e
       0.018930485 -0.082854815 0.014093185 0.29375866
000050 bd 47 83 bc 45 37 09 3e d8 68 0e 3d 28 ad 82 3c
       -0.016025418 0.1339999 0.034767956 0.015951708
000060 74 8b bc 3d e8 91 61 be 17 5c cf bb f2 ae 76 3a
       0.09206286 -0.22028315 -0.0063281166 0.0009410224
000070 e8 28 91 bb 9e 09 58 3c b2 b9 01 be b7 0b 80 be
       -0.0044299252 0.013185887 -0.12668493 -0.25008938
000080 bd ec 13 bd e5 03 a2 3d 66 8b 33 bd 94 bc 17 be
       -0.036114443 0.07910899 -0.043834113 -0.1481803
000090 b1 59 5a bd b0 8d ba be 24 d1 c6 be c7 2c 24 3e
       -0.053308193 -0.36436224 -0.38831437 0.16032706
0000a0 ce 81 c6 3d e2 cc af be 5a 5f ce 3c 54 f8 03 3d
       0.09692727 -0.34336 0.025191952 0.032219246
0000b0 af c4 bb 3d 99 98 8a bc a6 c7 24 3e 76 67 00 3e
       0.09168374 -0.016918467 0.16091785 0.12539467
0000c0 e9 a1 a4 3c de df 7c 3e 7b 67 50 be 60 e3 c3 3c
       0.020096736 0.24694774 -0.20351975 0.023912132
0000d0 4e 59 df bc 9b 38 a6 3d 2f 96 9a bd dc c1 62 be
       -0.027264263 0.081162654 -0.075481765 -0.22144264
0000e0 3e f8 cb bc f0 f0 dc bb 9a 0a 16 be be 1e 56 3e
       -0.024898645 -0.006742589 -0.14652482 0.20910165
0000f0 1b 14 7e 3d 40 1e 53 be 25 d2 34 3e 93 df 73 bd
       0.062030893 -0.20617008 0.17658289 -0.05953939
000100 29 a1 5b be d9 34 40 3e 97 b9 3c bd 4d 6b 2d be
       -0.21448196 0.1877016 -0.04607543 -0.16935463
000110 54 15 86 3e 0b 25 e5 bd c1 48 44 3e 9d 6d 41 3e
       0.26188147 -0.11188706 0.19168378 0.1888947
000120 65 20 7a 3c 8e 89 a5 3d 0c 2d 8e be 98 f8 f6 3e
       0.0152665125 0.08082877 -0.27768743 0.48236537
000130 dd 40 b4 bd 0e 7f d8 3d 5a ce e6 b9 45 89 06 be
       -0.08801434 0.10571109 -0.00044022762 -0.13138302
000140 0c 82 ab be 40 59 04 bf 1a 4d 61 3c c1 93 28 3c
       -0.33497655 -0.51698685 0.013751293 0.0102891335
000150 00 88 ac be df f5 2b bd 06 83 d6 bd 1f 6f 0f 3e
       -0.3369751 -0.041982528 -0.104742095 0.14007233
000160 9c 81 d7 bd bb 96 99 3a 35 71 60 3d 5c 24 fb bb
       -0.10522768 0.0011717895 0.054795463 -0.0076642465
000170 e3 c7 1a 3d d6 c3 14 be 3c 75 a2 3d 61 7f a1 3e
       0.037788283 -0.1452783 0.07932517 0.31542495
000180 ec fd 90 bd 1c ca e0 3d 35 46 3c be 9b d4 80 be
       -0.07079682 0.10976049 -0.18386157 -0.25162205
000190 c7 a2 88 bd 2a 32 60 be 1e 19 fe 3d 4c d6 c8 3c
       -0.06671672 -0.21894136 0.124071345 0.024516247
0001a0 79 de 8b 3e 25 9e 42 bd 19 43 40 3e 9c 18 24 be
       0.2731817 -0.0475141 0.18775596 -0.16025013
0001b0 4b cd 37 3d 6a 67 eb bd d5 0a 4a 3e 42 0a 24 3e
       0.044873517 -0.11494334 0.19730695 0.16019538
0001c0 d4 b9 2b be 8d 0f a0 3d 74 31 33 3d 79 1c 03 be
       -0.16770107 0.07815466 0.043748334 -0.1280383
0001d0 55 f4 af bd a8 08 66 bb a3 6b 07 3e 69 b7 53 be
       -0.085915245 -0.0035100374 0.13224654 -0.20675434
0001e0 b2 fb d8 bc c6 72 78 3d c1 5d 3d bd d2 f0 dc bd
       -0.026487205 0.06065633 -0.04623199 -0.1078812
0001f0 0b b3 74 3d cc 5a c8 3d 54 b2 3a 3e 99 d6 0f bd
       0.05974106 0.09782943 0.1823209 -0.035116766
000200 63 c7 95 bb b9 c6 72 3e a4 2e 1f bd a1 4a 71 3e
       -0.004570888 0.23708619 -0.03886284 0.23563625
000210 1f da 43 3d c6 a7 b4 bc d9 04 ee bd 0e 93 5d bd
       0.04781544 -0.022052657 -0.11622018 -0.05409532
000220 30 28 cc bd f0 7b 5a bd 5d b4 e8 3d 97 5b c7 bc
       -0.09968603 -0.053340852 0.113625266 -0.024335666
000230 70 dd 2a bd 6a 6f b8 be 6c cf 3c 3d b8 1a 4f 3d
       -0.041715086 -0.36022502 0.04609625 0.05056259
000240 c7 73 18 be a9 c3 00 be fe 5a 24 bd d6 49 fa bc
       -0.14887916 -0.12574638 -0.04012584 -0.030552786
000250 46 cb 8f be 14 b8 b3 3e 2e 8d 99 3d 30 0a 84 be
       -0.28084773 0.35101378 0.07497631 -0.25789022
000260 9e 0d 73 3d 89 4d b6 3d 2a 7d 61 bb 6a f3 4a 3e
       0.05933916 0.089015074 -0.003440688 0.19819418
000270 86 27 09 be 97 6c 1e bf dd 25 27 3e ef 20 b2 3c
       -0.13393983 -0.61884445 0.16323037 0.02174422
000280 bf db 8f 3e 16 17 5a be 8f 5e 96 3c 22 99 c9 3c
       0.2809734 -0.21297869 0.018355636 0.024609152
000290 a4 d5 60 3d 93 90 0d be 7c 2b 31 bd 24 d6 2a be
       0.054891244 -0.13824682 -0.04325436 -0.1668325
0002a0 05 43 97 3e 9f d0 40 be b2 38 d3 bd 9a ad f0 bd
       0.2954332 -0.18829583 -0.10313548 -0.11751862
0002b0 a1 23 ac bd 2b 93 38 be 10 34 fe bb ad 4c cb 3e
       -0.08405233 -0.1802489 -0.007757671 0.39706936
0002c0 09 0a 83 3d 03 ce 64 3e 8c ad 91 bc 4c f8 99 be
       0.063983984 0.22344212 -0.017782949 -0.30072248
0002d0 03 34 6e 3e a0 22 66 3c 48 d5 f2 3d bd 52 ab 3d
       0.23262028 0.014046341 0.118570864 0.083653904
0002e0 f2 ce 02 be b9 c2 3b be 81 4a 2c 3e 5f e7 6a bc
       -0.12774256 -0.18336 0.16825296 -0.01433739
0002f0 57 c4 15 3e 95 1a da bb bd 94 85 3e 09 55 b6 be
       0.14625679 -0.006656001 0.2609004 -0.35611752
000300 1a 0b 9c 3d e6 98 e9 3d 75 a4 b1 3d 12 2e 8b 3d
       0.07619305 0.11406116 0.08673946 0.067958966
000310 40 49 00 bd fa 20 69 bd 14 b2 d6 bd 68 69 cd 3c
       -0.031319857 -0.056916215 -0.104831845 0.025074676
000320 69 05 01 3c 15 88 1f 3d e2 02 bb bd cb ab 48 3d
       0.007874825 0.038948137 -0.09131409 0.04899196
000330 3e a7 7e bd 92 a7 8a bd 15 2d 95 3d 49 b4 d9 be
       -0.062171213 -0.06770243 0.07283989 -0.4252036
000340 68 95 86 be ea 34 8a bd 89 33 19 3d 4c fb 40 be
       -0.26285863 -0.06748374 0.037402663 -0.18845862
000350 9d 25 51 3c 35 c0 17 be 17 6f 1b 3e 68 3e 71 3c
       0.012765315 -0.14819415 0.15179096 0.0147243515
000360 a9 40 df bd b1 30 08 be ea 91 dc be 7d e7 88 bd
       -0.10901005 -0.13299824 -0.43080074 -0.06684778
000370 ea 2d 78 3d 4d c4 7b 3e e4 a9 66 be 0d 97 ab bd
       0.060590662 0.24586602 -0.22525746 -0.0837842
000380 7c 2a 87 be 61 c6 82 3e 60 ef 61 bb 40 91 2f 3d
       -0.263996 0.25541976 -0.0034474954 0.04286313
000390 0f 4d 36 3d e7 f6 7e 3d 4c f0 a0 bc cf 81 07 bf
       0.044507083 0.062247183 -0.019645832 -0.5293245
0003a0 54 1e 23 3d aa 70 38 be 0e 10 1a be 88 cc 17 be
       0.039823845 -0.18011728 -0.15045187 -0.14824116
0003b0 80 59 ee 3b b2 55 79 3e 1e bf 05 bd 94 d4 b3 bd
       0.007273853 0.24349096 -0.032652967 -0.087807804
0003c0 65 0e 20 be 3e 01 39 3e 66 38 2b 3d 09 a6 c1 3c
       -0.15630491 0.1806688 0.041801833 0.023638742
0003d0 36 0b 2f 3e 81 78 a3 3d 06 db 67 3d da 61 4d be
       0.1709412 0.07981969 0.05660536 -0.20056859
0003e0 0a 54 30 3e 5a 14 72 bd 43 0c e7 3c 65 0f 67 be
       0.17219558 -0.05910144 0.028204089 -0.22564466
0003f0 9d 89 6a bd b4 94 8d bc 9d f0 84 3e 98 b8 a3 3e
       -0.057260145 -0.017282821 0.25964823 0.3197677
